convNet_model.pth (torch, 988194 bytes, 14 tensors)

conv1.weight f4 [16, 3, 3, 3]
000000 6b d9 a6 3d 6b 39 91 3e 9f 93 1c bc 37 32 f1 3d
       0.08146938 0.2836412 -0.00955668 0.11777156
000010 3b a0 fc 3d ed f5 29 be c0 cf 86 3d 04 d9 7b be
       0.12335249 -0.1659772 0.06582594 -0.24594504
000020 a0 f1 c9 bd b0 a8 f5 3d c3 f0 b3 3d 60 a4 5c 3c
       -0.098605394 0.11995065 0.08786156 0.013466924
000030 c4 9e b1 3e 51 f2 65 be bf 78 30 be 8f 55 83 3c
       0.3469144 -0.22455718 -0.17233561 0.016032008
000040 df 99 80 be ed a8 cd bd 6e 33 1c 3e 03 a7 f1 bc
       -0.25117394 -0.10041986 0.15253994 -0.029498583
000050 d0 d1 24 be b8 e6 5f 3e e6 ff 2a be f4 fd 21 be
       -0.16095662 0.21865356 -0.1669918 -0.15819532
000060 3d f6 2b 3e 4f 17 18 be 54 a0 3d 3e 97 de 60 bd
       0.16793151 -0.14852642 0.18518192 -0.05489978
000070 18 98 9f bd a7 f7 8c be c2 88 bd bb c6 11 3b 3e
       -0.077926815 -0.27532694 -0.005784125 0.18268499
000080 91 b6 64 3d 50 46 f8 3d 58 25 8e 3e 17 51 71 3e
       0.05583817 0.12122786 0.27762866 0.2356609
000090 a7 39 16 3d 87 e5 e9 3d 1f 1d 07 3d ae ea d8 bd
       0.036676075 0.11420732 0.032986756 -0.105916366
0000a0 a7 8f e7 bc 2e 4a 23 3d 19 9d 19 be e3 d1 12 be
       -0.028266741 0.039865665 -0.15001334 -0.14337878
0000b0 49 08 c2 3d 09 7f 1b 3e 8d ba a9 3d 8a c6 36 3e
       0.094742365 0.15185179 0.08287535 0.17849174
0000c0 31 95 11 bd 73 f5 c4 3d 47 7e 40 3c 62 16 59 be
       -0.03554267 0.09617128 0.011748857 -0.21199945
0000d0 0e 03 a1 be 18 46 69 be 63 b6 e0 bd 29 85 13 be
       -0.31447643 -0.22780645 -0.109722875 -0.14406265
0000e0 5a 1c a6 3e 95 05 05 3e 1a de a5 be 7e e9 e9 ba
       0.32443506 0.1299041 -0.32396013 -0.0017846075
0000f0 01 0a 6d 3e e0 7d 12 bc 03 0d bd bd fc f3 55 3d
       0.23148347 -0.008941144 -0.092309974 0.052234635
000100 ca 38 24 be b6 0b 4b 3d 9c c9 ca 3e b9 9a d7 be
       -0.16037288 0.049571715 0.3960694 -0.42110232
000110 b0 f4 6a 3c cc f1 46 3e 43 4a 02 3d 50 9b 04 be
       0.014340565 0.19428176 0.031809103 -0.12949872
000120 46 2a 83 3d 12 1d 8f be 08 54 2b 3e 6c f3 86 3e
       0.064045474 -0.27951866 0.16731274 0.2635759
000130 f7 ea 9e be 67 ce f1 bd 3b b5 61 3e cd e1 03 3e
       -0.3103864 -0.11806946 0.2204179 0.12879105
000140 20 d9 04 be c3 fa f0 3c c9 9a a4 be fa 75 9b 3c
       -0.12973452 0.029416448 -0.32149342 0.018977154
000150 bc cf 91 be 1b a0 2c bd 4f a8 8d bd 21 ec ab 3c
       -0.284788 -0.042144876 -0.06916868 0.020986618
000160 4c d4 16 3d ab 95 1f be 1f 35 a7 3e 6d ca d5 bd
       0.036823556 -0.15584438 0.32657716 -0.10439
000170 60 ff af 3d 4e bb 3e bd 69 49 b3 3d ad 26 da 3e
       0.08593631 -0.046565346 0.08754236 0.42607632
000180 a1 02 48 3e 0e b6 da 3e 0d 61 14 3e 06 e3 ee 3d
       0.19532253 0.42717022 0.14490147 0.11664395
000190 8b f5 d4 bd 46 99 79 3d fe 3a 1a be e9 74 71 be
       -0.10398396 0.06093719 -0.15061566 -0.23579754
0001a0 65 c9 46 be 4e 52 0b be d4 eb 34 be e5 50 83 bd
       -0.19412763 -0.13605615 -0.17668086 -0.06411914
0001b0 93 63 da 3e 3f d4 91 3d a9 8a eb 3d 95 bb d8 3e
       0.42654094 0.07120561 0.11501057 0.42330614
0001c0 65 c1 85 3e 78 31 21 be c1 c9 4d bd d5 e4 95 bc
       0.2612411 -0.15741527 -0.050241236 -0.018297592
0001d0 1f a2 84 be 50 52 8f be 9d 7a 84 be 7a 7a 6a be
       -0.2590494 -0.27992487 -0.25874797 -0.22898284
0001e0 91 6c 91 be 03 eb 95 be ac 1d 1b 3e 6b 64 c9 bd
       -0.28403142 -0.29280862 0.15148038 -0.09833606
0001f0 22 92 10 be 39 4b 22 3e dd 93 91 be 5f 34 01 3e
       -0.14118245 0.15849008 -0.28433123 0.12617634
000200 da c4 1e 3e 59 4c 7a be 8f 8e b1 bc 86 21 1b 3d
       0.1550478 -0.24443187 -0.021674423 0.037873767
000210 fa 55 b6 3d b6 7e 05 3e cb e2 3e 3e 96 48 66 be
       0.089031175 0.13036618 0.18641202 -0.22488627
000220 78 13 96 be b3 69 68 bd d5 4b d5 bc bb 06 5a be
       -0.29311728 -0.056741428 -0.026037136 -0.2129163
000230 02 df e5 ba 3d f8 29 3e 1a 99 f2 3e 8a 23 05 3e
       -0.0017537775 0.16598602 0.47382432 0.13001838
000240 d1 94 01 3e 1b c3 4d 3c 5b 4c 39 bc cf d1 73 bc
       0.12654425 0.012558724 -0.0113097085 -0.014881565
000250 79 51 2f be 6b 32 0e 3c 9d b8 2c 3d dc 56 14 3e
       -0.17120923 0.008679013 0.04216825 0.14486259
000260 2e ee f8 bd 50 a6 3e be c7 4d 89 3c 8b 81 2b be
       -0.12154804 -0.1861813 0.01676072 -0.16748635
000270 c8 d6 c5 bd d1 a7 59 be 6a 9b f4 3b 91 a4 ef 3d
       -0.09660107 -0.21255423 0.007464816 0.117013104
000280 18 e5 7a 3e 01 38 4d 3e 3d 08 62 bb 7d b0 a9 be
       0.24501455 0.20040895 -0.0034489774 -0.33142462
000290 38 82 a4 be 2c 3a 61 3e 3f da a0 be a3 f0 aa be
       -0.321306 0.21994847 -0.3141651 -0.33386716
0002a0 a0 a3 f1 3e ac 65 46 3e 97 c9 1c be 53 e9 ff 3d
       0.47195148 0.19374722 -0.15311275 0.12495675
0002b0 08 ff 80 bc 90 ba 85 3e ee 4b 0f 3e dc ee 02 be
       -0.015746608 0.26118898 0.13993809 -0.1278643
0002c0 20 6c 44 3e 62 a7 49 be f5 99 5d be 33 28 53 3e
       0.19181871 -0.19692758 -0.21640761 0.20620804
0002d0 f5 ec 88 3c 83 42 4d 3e 15 9c 1d 3e 65 ec 20 be
       0.016714552 0.20044903 0.15391572 -0.15715177
0002e0 35 b4 4a 3e e6 75 a1 3e b6 01 98 be ac 31 29 bd
       0.19795306 0.31535262 -0.29688805 -0.041307136
0002f0 60 1e 59 bd 06 fa 14 bd a2 f6 7a 3e 71 51 05 3e
       -0.053007483 -0.036371253 0.24508145 0.13019349
000300 c0 1d 0e be 1a 23 67 be 22 6e 56 bc 04 cc 2c 3e
       -0.13878536 -0.22571984 -0.013087781 0.16874701
000310 b4 7d 22 bc e3 bb 9e bd 21 d9 f7 3d 4c 58 38 3e
       -0.009917665 -0.0775068 0.12101961 0.18002433
000320 a6 fa 47 3e d2 a6 9a bc d6 49 86 be 9b 56 09 3e
       0.19529209 -0.018878374 -0.26228207 0.13411944
000330 5d ac e2 bc cf 66 55 be 9b 27 87 be 6e 20 03 3e
       -0.02767008 -0.2084 -0.26397404 0.1280534
000340 f1 4e 55 3e 1f 20 23 3e f6 00 bb bd 8c 63 e6 bd
       0.20830895 0.15930222 -0.09131043 -0.11249456
000350 dc 86 c5 3d b2 86 ba bd 49 1b 24 be 25 66 e9 bd
       0.09644863 -0.09107722 -0.16026033 -0.11396436
000360 94 50 14 3e a4 1f 80 bd be b7 8e be a8 99 5b 3d
       0.14483863 -0.06256035 -0.2787456 0.053613335
000370 e5 b7 91 3d e5 e2 72 bc 81 9a 24 bd 90 74 bc bd
       0.07115153 -0.014824604 -0.04018641 -0.0920192
000380 9b 8a 56 3e 34 72 8c 3e 4b 98 98 bc 0b 27 4b be
       0.20951311 0.2743088 -0.018627306 -0.19839112
000390 3e 16 90 bd ec 94 01 3e ed b6 4a 3d 72 30 8d be
       -0.07035492 0.12654465 0.049490858 -0.27576023
0003a0 9d 4e 60 3e ad 96 95 bd e2 6e 80 3e 98 ad 29 be
       0.21904989 -0.0730413 0.25084597 -0.16570127
0003b0 a2 d5 27 be be fa 57 be 4e 5d 8a 3e 81 27 2f bc
       -0.16390088 -0.21091744 0.2702431 -0.010690571
0003c0 45 e9 13 3e 47 76 1b bc bf 9c 1b be cc c2 93 be
       0.14444454 -0.009488649 -0.15196513 -0.28859556
0003d0 06 6d d4 3e 35 3f e8 bd 21 a2 ba be cc 9c b5 3e
       0.41489428 -0.11340181 -0.3645182 0.3547119
0003e0 a4 14 a8 bd 2f ce 38 bd 27 c3 86 3e c7 c4 2b be
       -0.08207062 -0.045118507 0.26320764 -0.16774283
0003f0 fd e4 a6 be d6 0f d1 3e 8e 97 a3 bd 76 43 45 be
       -0.3259658 0.40832394 -0.07987891 -0.19264016

conv1.bias f4 [16]
000000 d2 da d2 bc dd ac 37 be 53 af 26 bd bc 7a 0b be
       -0.025739107 -0.17937036 -0.040694546 -0.13621038
000010 84 40 95 bd 22 1a 33 bd 00 1f 74 3d 0b dd c2 bd
       -0.07287696 -0.043726094 0.059599876 -0.09514817
000020 13 04 21 bd 7c 60 e7 bc d1 b2 1d bd d6 af 6e bd
       -0.039310526 -0.02824425 -0.03850061 -0.05827316
000030 64 e7 d4 3d b0 9f 17 bd e9 82 9a bd 9e 96 08 be
       0.10395697 -0.037017524 -0.075445004 -0.13338706

conv2.weight f4 [32, 16, 3, 3]
000000 80 06 23 3d 5f ff 45 be e5 b9 5c bd 81 9a aa 3d
       0.03980112 -0.19335698 -0.05388822 0.083302505
000010 30 18 98 bd d0 44 dc 3d 59 fb fd bc be e5 8f be
       -0.074264884 0.107553124 -0.031003641 -0.28104967
000020 e8 b3 ec 3d 60 f1 fa 3d 75 b0 20 3e 7b 01 4d 3e
       0.11557752 0.1225307 0.15692313 0.20020096
000030 64 21 e2 bc 0b 6c c6 bb f9 9c 8f 3c a1 a4 d7 bd
       -0.027603813 -0.00605536 0.017530905 -0.10529447
000040 2f 2f c4 bc f9 64 d2 bd d5 00 ba 3c 58 37 4a be
       -0.02394828 -0.10273165 0.022705475 -0.19747674
000050 39 71 ef bd 38 18 2f be 11 47 64 bf 4d d3 29 be
       -0.116915174 -0.17099082 -0.8917094 -0.16584511
000060 58 8a fc bd 49 20 22 bf bd 73 82 3d 02 a2 c3 3d
       -0.123310745 -0.63330513 0.063697316 0.09552385
000070 bf 9b 72 3b 3a b8 0c 3d 11 51 26 3d dd 8a cf 3a
       0.0037019101 0.03435538 0.040604655 0.0015834231
000080 53 95 5e bb d4 6b b8 3d 7a dd 54 bd 1b 32 62 bd
       -0.0033963516 0.090049416 -0.05196903 -0.055223566
000090 0e 74 b6 bd d1 93 31 be ea 87 c5 bd b9 a4 df 3d
       -0.089088544 -0.17341544 -0.09645064 0.1092009
0000a0 29 7f 84 bc cd ed 07 3e 45 97 0b 3e ce 96 43 3d
       -0.016173916 0.13274308 0.13631923 0.04775124
0000b0 f3 9d 19 3e 3b 98 19 3e a9 3d 2c 3e c8 7c 3f bb
       0.15001659 0.14999478 0.16820396 -0.0029218663
0000c0 d3 66 35 bd 42 72 ab 3d 02 04 de bc 2e fd 0a 3e
       -0.044287514 0.08371402 -0.02710152 0.13573143
0000d0 d5 2f 50 3e f4 b2 61 3c e2 c8 41 3e ce 7c de 3d
       0.20330746 0.013775576 0.18924287 0.10863648
0000e0 77 74 b0 3d 24 ac b5 3c 66 f5 23 be 03 1f 8b bd
       0.08615964 0.02217681 -0.16011581 -0.067930244
0000f0 64 96 3e bc 13 96 23 be 1e 5f 86 3d f0 ba 99 3d
       -0.011632536 -0.15975218 0.06561111 0.075063586
000100 e0 c2 94 3d 8d e6 57 3d d2 30 a4 3d 30 0c af 3d
       0.07263732 0.052710105 0.08017124 0.085472465
000110 5b bb de 3c 44 15 18 3e 06 8c 73 3d 03 55 6e bd
       0.027188947 0.14851862 0.05945971 -0.058186542
000120 90 82 35 3e 0d 1b e2 3d 14 ca da bb 10 bd b3 3d
       0.17725587 0.11040316 -0.0066769216 0.08776295
000130 9d f1 cf be 0e f6 6f 3d 57 df 75 bc 3b 2f bf be
       -0.40614024 0.058584265 -0.015006862 -0.3734072
000140 51 8d 67 3d 86 89 76 3e 88 07 29 be a8 61 b3 3d
       0.056531254 0.24075899 -0.16506779 0.08758861
000150 eb 62 a2 bd 59 d9 a3 bf 67 f4 84 be b3 80 dc 3c
       -0.07929023 -1.2800704 -0.25967714 0.026916837
000160 a9 ee 9e bf 46 74 23 3c 7c 5b 33 3d ec 72 0e bd
       -1.2416583 0.009976452 0.04378842 -0.034777567
000170 c6 51 d9 3b b2 4e 87 3d c7 82 95 bb bc 9f c6 3c
       0.0066320626 0.06606807 -0.004562709 0.02424609
000180 f9 dd 96 3d b7 df 68 bd 21 a1 d7 3d 94 ea b8 3d
       0.07366557 -0.056853976 0.1052878 0.09029117
000190 d8 a8 2f 3e 81 60 61 3d 60 77 7e 3e 37 6e 82 3e
       0.17154253 0.055023674 0.24850225 0.25474712
0001a0 74 ba 51 3e 96 cb 5e 3e 82 93 8f 3e e7 67 96 3d
       0.20481282 0.2175735 0.28042227 0.073440365
0001b0 ce 4b 10 3e f8 6e 8d 3c cd f4 cb 3d 46 20 c4 bc
       0.14091417 0.017264828 0.099588014 -0.02394117
0001c0 66 0a 85 bd 12 83 ba bd da db b8 3d 01 f3 a6 3c
       -0.06496124 -0.09107031 0.09026308 0.020379545
0001d0 29 b4 e6 3c 79 30 c5 3d 0b e0 eb 3c 8a 86 1d 3e
       0.028162079 0.09628386 0.028793355 0.15383354
0001e0 a8 1e ea bd 0c 97 19 bf d1 75 25 3e 4b 63 8d 3d
       -0.114316285 -0.59996104 0.16158225 0.06903704
0001f0 fb 6a 5a be f0 2e d4 3d f6 42 0d bc 7e 76 5c be
       -0.21329872 0.10360515 -0.008621922 -0.21529576
000200 79 2b f0 bc 37 3d 04 be 83 db 34 be d9 37 a7 3d
       -0.029317604 -0.12913977 -0.17661862 0.08164949
000210 18 f3 82 bd 9d 7b c1 bd 4b e5 3d 3d 5b c4 bf 3d
       -0.06394023 -0.094474055 0.04636125 0.09363624
000220 77 21 02 3e 8a 52 3b 3e 9e 3a ed bd 58 f0 6e bb
       0.12708078 0.18293205 -0.11583446 -0.0036459174
000230 f2 d5 2e 3e f7 2d 38 be 2a 3b 4f be c1 37 82 bd
       0.17073801 -0.17986284 -0.20237413 -0.063582905
000240 33 ec 72 bd 83 6e 53 3d 23 54 7f bd a2 61 a7 3c
       -0.05930729 0.051619064 -0.0623361 0.020432297
000250 58 75 bb 3d c0 19 bd bc aa 91 f1 3d 5f 44 eb 3c
       0.09153241 -0.023083568 0.11795361 0.028719125
000260 31 f9 0c 3e 14 da 83 be ab a4 91 be 37 84 ba 3d
       0.13766934 -0.25752318 -0.28445944 0.09107249
000270 da 88 5a be 94 ce e2 bd 12 53 3b 3e 4a 06 d6 ba
       -0.21341267 -0.11074558 0.18293408 -0.0016328779
000280 bd 76 8e bd 29 b9 ff bc 41 95 ed 3c 81 c7 03 bc
       -0.06956241 -0.03121622 0.029001834 -0.008043171
000290 19 06 c0 3d bc 4c 9b 3d d2 9f b8 3d 3c 57 0d 3d
       0.09376163 0.07582995 0.09014858 0.03450702
0002a0 dc 33 1e 3e 97 77 1d 3c 0e 0d c8 3d 84 42 8f bc
       0.1544947 0.009611032 0.09768115 -0.017487772
0002b0 4c fb 22 be da 08 65 3e d6 4c 35 be fe f8 1f be
       -0.15916175 0.22366658 -0.17705092 -0.15622327
0002c0 17 a1 7e 3d 84 7d 0d be 9b a6 5a be da c8 70 3e
       0.062165346 -0.13817412 -0.21352617 0.23514119
0002d0 0a 8d 9e 3d 10 b7 85 bd bc d7 91 3d 4c 4d a3 bc
       0.07741745 -0.06529057 0.07121226 -0.019934319
0002e0 df 3f e8 bc 7c d0 dc bd 6d 83 2d 3e 9b fe 79 3d
       -0.028350769 -0.10781953 0.16944666 0.061033826
0002f0 86 ba 61 3d b3 fc e7 bd 52 a9 46 be 46 8f 05 be
       0.055109523 -0.113274954 -0.19400528 -0.13042936
000300 d4 82 0b be 07 09 74 be ee 95 f9 bd 0b 48 6e bd
       -0.13624126 -0.23831569 -0.121868 -0.058174174
000310 35 8e 22 be f1 a5 23 bd d2 f7 17 3e 75 92 d1 bc
       -0.1587456 -0.039953176 0.1484063 -0.025582531
000320 ea 5b dc 3d 6b fc 4e 3e 60 47 a3 bd d7 16 6a 3e
       0.10759719 0.20213477 -0.07972598 0.22860275
000330 57 b1 61 3d 8e 0a 79 be 59 52 42 3e aa 95 8c bc
       0.055100765 -0.24320433 0.18976726 -0.01716121
000340 2e ed 32 be 30 e1 ed 3b 3b 62 81 be 5f de d1 be
       -0.1747329 0.0072595105 -0.25270256 -0.40989968
000350 59 06 30 be 3b ad 4d be a7 2f 27 be b8 28 5e 39
       -0.17189921 -0.20085613 -0.16326772 0.00021186739
000360 1c 7e e8 bc 85 84 a2 bd 02 57 ce 3b e7 27 83 3c
       -0.028380446 -0.07935432 0.0062969932 0.016010238
000370 19 c9 76 bb 4d 9b 5a bd 50 21 b9 3d 28 52 51 bc
       -0.0037656485 -0.053370763 0.09039557 -0.012775935
000380 80 54 10 3e 21 4c 40 3d f9 c7 41 3e 0a 93 50 3d
       0.14094734 0.046947602 0.1892394 0.050921477
000390 0b 9d 1b 3e 49 55 dc 3e f5 38 a5 3e 76 20 4b 3e
       0.15196626 0.43033817 0.32270017 0.19836602
0003a0 1c 52 b9 3e df ec 1a 3e 97 a2 38 3d 5f d5 34 be
       0.36195457 0.15129422 0.045076933 -0.1765952
0003b0 c8 1f 26 be 75 1d 1d 3e ae 38 2f be f2 6a 24 3d
       -0.16223061 0.15343268 -0.17111465 0.040141053
0003c0 3a 83 49 bd 4b e2 31 be a1 3e b5 bc 64 00 6a be
       -0.049197413 -0.1737148 -0.02212459 -0.22851712
0003d0 f4 6e 09 be 36 e9 55 bd b0 03 0a bc 44 0a b4 bd
       -0.13421232 -0.05222436 -0.008423731 -0.087910205
0003e0 43 7f a1 3d 58 c9 40 be ab f9 18 bc e2 37 3f bd
       0.07885601 -0.18826807 -0.009336869 -0.046684153
0003f0 0b 23 10 bd 8f 4c 8a 3d 80 e6 af bd 96 1a 66 bd
       -0.03518967 0.06752884 -0.08588886 -0.056177698

conv2.bias f4 [32]
000000 40 cd ce 3d 05 06 8a bd 64 65 ce 3e 3a 3e 09 3e
       0.10097742 -0.067394294 0.4031173 0.13402644
000010 9a ff 4c bd bb 08 36 be 53 21 1e 3e e4 6a c2 3d
       -0.05004845 -0.17776768 0.154424 0.09493044
000020 8d e2 70 bd bb 99 3c bd 22 6a 0e 3e 6b fa b4 3d
       -0.058809806 -0.046045046 0.13907674 0.08836826
000030 45 d7 2c 3e 74 b8 80 bd 0f ed 2e 3d 50 4a 67 3e
       0.16878994 -0.06285182 0.042706545 0.22586942
000040 75 68 2d 3e 95 a2 37 3d b9 fc ca 3c 22 3c 85 bd
       0.16934378 0.044832785 0.02477871 -0.0650561
000050 4b 54 05 3f 6c 4d 9e 3d b6 39 90 3d 0d 02 87 be
       0.52081746 0.07729611 0.070422575 -0.26368752
000060 66 fa 70 3c 00 3b d8 bd 1c c3 9e 3e 84 bb 6f be
       0.014708137 -0.10558128 0.31008232 -0.23411375
000070 70 46 8d bd 18 26 4e 3e bb a9 21 be ef 8c db bc
       -0.068982005 0.20131719 -0.15787403 -0.0268006

conv3.weight f4 [64, 32, 3, 3]
000000 52 91 13 bd b7 35 fe bc 8b f0 9d 3e ab 51 45 bf
       -0.03602726 -0.031031473 0.30847582 -0.7707774
000010 75 3a 9a bd 2a 0e c2 3e 17 ba 9a be d9 67 3b 3d
       -0.07530681 0.3790143 -0.302201 0.045753334
000020 2f b2 a5 3e eb 7c 04 bc 4a bf 2d be e4 5a c0 bd
       0.32362506 -0.008086423 -0.16967502 -0.09392336
000030 a9 db da 3e 7f eb d0 3c 3f 90 b4 be 38 4c 4b 3e
       0.42745712 0.025502918 -0.352663 0.19853294
000040 84 8a 2b 3b 35 e6 25 bf 54 82 5d 3d b9 22 ed 3d
       0.002617509 -0.64804393 0.05407937 0.115788884
000050 f6 b3 63 bb f9 74 e6 be 59 8e 54 be cd 6a 23 be
       -0.0034744716 -0.45011118 -0.20757426 -0.1595871
000060 e0 50 44 3e ae ac 6d 3b 79 28 80 3d 88 8e 91 3e
       0.19171476 0.0036266255 0.062577195 0.28429055
000070 d7 7c 97 be c8 35 7c be 8e 53 34 3f 05 40 23 be
       -0.29587433 -0.24629891 0.70439994 -0.1594239
000080 a8 c4 08 be e4 7d 28 3e 68 d6 80 be b4 19 77 be
       -0.13356268 0.16454273 -0.2516358 -0.24130899
000090 61 a4 47 be b2 6a 9e 3e a4 4f a3 bd 5e 37 c2 be
       -0.194963 0.30940777 -0.079741746 -0.37932867
0000a0 ae 63 74 bc f0 85 3f 3e 5b 94 09 be 1d 19 7d be
       -0.014916344 0.18703437 -0.134355 -0.24716611
0000b0 10 d3 79 3d 3c ad ad 3e a0 e8 80 bd 3f 9e 1c be
       0.0609923 0.3392123 -0.0629437 -0.15294741
0000c0 e0 40 3f be 5f d4 0b bd 02 ff e2 bd 1d 7a 48 be
       -0.18677092 -0.03413808 -0.11083795 -0.19577833
0000d0 31 cd 01 3e 4a 92 40 3d bd 3b 8f 3e b5 06 25 3e
       0.1267593 0.047014512 0.27975264 0.1611584
0000e0 43 69 0b bd d1 7b c9 bd f0 42 98 3d 11 c6 41 3e
       -0.034035932 -0.09838069 0.07434642 0.18923213
0000f0 12 d4 10 be 58 3a bf 3d 5d 01 01 3e 4a 29 6a 3d
       -0.14143398 0.093373 0.12598176 0.057168283
000100 26 06 0a 3b 4b 3c 1a be 5d 5b e4 3d 5e ad e7 bd
       0.0021060794 -0.15062062 0.11150239 -0.11312364
000110 65 ba 9f be 01 93 38 3d d9 6a c0 bd 5c 36 3d 3d
       -0.31196895 0.04506207 -0.093953796 0.04619442
000120 58 5a 2f 3e 31 da 16 3e e9 87 e1 bb 66 8f 67 3e
       0.17124307 0.14731671 -0.006882657 0.22613296
000130 07 af ba 3d 5c d1 6c bd 7b b9 ee 3d 11 87 90 bd
       0.09115415 -0.05781685 0.11656471 -0.07057012
000140 2b a7 fc bc 4f 61 bd 3a 3c 5a f3 3d 23 cf 8f bd
       -0.03084143 0.0014448556 0.11882445 -0.0702193
000150 22 f4 ce 3d ac 06 01 be 2f c4 79 be 89 a9 0f 3d
       0.101051584 -0.12600201 -0.24391244 0.03507379
000160 f3 36 dc bd e5 08 f2 be b0 71 b9 bc 06 6b 43 3e
       -0.10752668 -0.4727241 -0.022637218 0.19083795
000170 48 31 02 be f1 bb 8b be ee 3d 9b 3d d3 53 80 be
       -0.12714112 -0.27291825 0.075801715 -0.25063953
000180 15 20 1a 3d 56 41 ae bd f3 f3 fb 3c 8a 0c 0e be
       0.037628252 -0.085085556 0.030755972 -0.13871971
000190 8d 46 56 be 62 a8 07 3e 65 2e 09 bf 73 eb d5 bc
       -0.2092535 0.13247827 -0.5358642 -0.026113247
0001a0 0e c2 9c 3d 0b b7 a0 bd c1 3f a3 3d 51 f8 81 3c
       0.076542005 -0.07847413 0.079711445 0.015865477
0001b0 42 f4 29 3e 33 81 e2 bc 35 0a 25 be 67 fa cb 3b
       0.16597083 -0.027649498 -0.16117175 0.0062249186
0001c0 c3 b1 f5 3c 37 69 88 bd 61 d6 67 3e 37 1c a9 3c
       0.02999199 -0.06660693 0.22640373 0.020643337
0001d0 5e 8a f4 3c cf 73 7f 3e ec ed a6 3d 48 4f 44 be
       0.029851135 0.24946521 0.08150849 -0.19170868
0001e0 7d 58 94 3e 31 9e 8e 3e 7d e6 b4 be f0 f4 23 3e
       0.2897376 0.27855065 -0.353321 0.16011405
0001f0 17 ce 15 3d 7f a1 6c bc 89 57 61 3e 9a bc e8 bd
       0.036573496 -0.014442801 0.22006048 -0.11364098
000200 2a 45 84 bd a3 d0 e6 be 35 62 fa bd 65 ef 57 3d
       -0.064585045 -0.45081052 -0.12225763 0.05271854
000210 60 59 9e bd 3d 77 ff bd f6 13 5d 3e 91 08 85 be
       -0.07731891 -0.12473915 0.21589646 -0.25983098
000220 b6 7d 87 bd 1d 47 53 be 54 d8 36 3c c5 f8 7b be
       -0.06615774 -0.20632596 0.011159975 -0.24606617
000230 5e f2 a8 be 11 c5 d7 3d 5d f8 e2 3d bc ba 02 be
       -0.3299741 0.10535634 0.11082528 -0.12766546
000240 50 9c 6d bc 83 8b 66 3e 7d 64 cf 3d fe 6b 8e bd
       -0.0145026 0.22514157 0.101265885 -0.069541916
000250 4f 56 eb 3d 1a d5 c0 3d 89 98 18 bd 64 7b ea bd
       0.114910714 0.09415646 -0.037254844 -0.11449316
000260 78 02 e8 bd 80 3c c3 bd 84 99 a6 be df 87 1a be
       -0.11328596 -0.09533024 -0.32538998 -0.15090893
000270 1e e8 3c bd 6b 32 6b bd 9b 12 26 3d 73 dc 8e 3e
       -0.0461198 -0.05742113 0.040545087 0.27902564
000280 f8 d2 08 3d 4d 04 00 3d 65 53 8d ba b4 b5 82 3d
       0.03340432 0.0312541 -0.00107823 0.06382313
000290 e3 f5 39 bd cb d6 73 be 7c 87 40 3d b1 29 ac 3b
       -0.04540051 -0.23812406 0.047004208 0.0052539934
0002a0 e5 b0 a9 3d 10 c4 d3 bd b6 54 5e bc 37 32 c1 be
       0.08285693 -0.1034013 -0.013570001 -0.37733623
0002b0 c2 8a 62 be 05 4d 45 bd c7 36 54 bc dd a4 1d 3f
       -0.22123244 -0.048169155 -0.012952513 0.61579686
0002c0 c6 f2 ef bd 45 83 19 3e de 44 85 3e 1a 12 37 bd
       -0.11716227 0.14991482 0.26029104 -0.044694997
0002d0 7b f3 a8 bd d2 50 52 3d c8 fa 89 3e 6f 6c bc be
       -0.08249565 0.051346608 0.26949143 -0.36801478
0002e0 1b 96 86 be d4 71 a5 3e 15 fc 97 3d 43 08 a8 bc
       -0.26286396 0.32313406 0.07421128 -0.020511752
0002f0 c2 e8 91 bd 2b 22 a1 bd c8 c3 f5 3d 60 2d fe bc
       -0.07124473 -0.07867845 0.12000233 -0.031027496
000300 cd b4 99 be 90 e4 4e bd 30 1b 30 3e 2e dc 23 bf
       -0.30020753 -0.050510943 0.17197871 -0.6400784
000310 76 75 8b bd 6a 5c a2 3e 3f d3 1c bf 4b 54 c8 3d
       -0.06809513 0.3171113 -0.61259836 0.097817026
000320 ff 61 dd 3d a2 26 2a bf 9e d8 87 3d e7 e3 5d 3e
       0.10809707 -0.664652 0.06633113 0.21668969
000330 cd 07 b3 be b0 fa 71 3e c3 79 28 3e d0 0c a4 bc
       -0.3496689 0.23630786 0.16452698 -0.02002564
000340 b2 5b b9 3d e7 cc d3 3c 2c 82 22 bd dd 17 de 3c
       0.090506926 0.025854541 -0.039674923 0.027110988
000350 90 48 f9 ba 54 89 2f bd 8c 1f a7 bd da 63 e5 bc
       -0.0019018818 -0.042855576 -0.08160314 -0.028001714
000360 c6 7d 58 bc 40 15 ac 3d 62 fc ca bb 10 c6 7f 3c
       -0.0132135805 0.084024906 -0.006194637 0.015611187
000370 74 cc c2 be 6f 53 ad be 21 a9 5b bd 8a 19 1c be
       -0.3804661 -0.33852717 -0.05362809 -0.15244117
000380 1d 63 10 3c 7f de 89 be dd f6 8d be 79 34 24 be
       0.008812693 -0.26927564 -0.27727404 -0.16035642
000390 ba 55 30 bd 99 fa 4d 3d ad d4 00 be d4 0c 7d 3e
       -0.043050505 0.050287817 -0.1258113 0.24711925
0003a0 54 11 34 3d 55 02 51 be 3f 0e 46 3e 32 dc 38 3e
       0.043961838 -0.20411046 0.19341372 0.18052748
0003b0 1c 55 53 be b4 4f 8b 3c 37 11 e9 bc bb 6a 19 3e
       -0.20637935 0.017005779 -0.028450591 0.1498212
0003c0 b4 c0 4a 3d 60 3f 3b 3e 5d b2 32 3e 64 89 34 3e
       0.049500182 0.18285894 0.17450853 0.17630535
0003d0 fd c0 1d be 6b 0c c5 bd 37 3a b6 bd 61 0b 59 be
       -0.1540565 -0.09621509 -0.08897822 -0.21195747
0003e0 aa df 30 3e cd 77 67 be a8 22 4a bd 99 47 19 3e
       0.17272821 -0.22604294 -0.049349457 0.14968719
0003f0 23 ab 8b 3e 79 2a 77 be 3d d0 be 3d 00 53 c8 bd
       0.27279004 -0.24137296 0.09317062 -0.09781456

conv3.bias f4 [64]
000000 a8 83 a5 bd 56 5a e1 bd 81 25 2e 3e 6e c0 9f be
       -0.08081752 -0.11003558 0.17006494 -0.312015
000010 9b af 24 3f c7 8a 6b bb c8 74 9e bd 98 fe b9 be
       0.6433045 -0.0035940872 -0.07737118 -0.36327052
000020 54 dd a4 3e 86 e6 00 be db 2f ab 3e 5f a2 4a 3e
       0.3220011 -0.12587938 0.33434948 0.19788502
000030 b9 2a e5 3e d7 44 cd bd 27 c2 0f 3f 5c cd 0d 3f
       0.44759157 -0.10022896 0.5615563 0.5539148
000040 71 bf 84 3d fa 64 4b bc 75 bf 3c 3d ec 3e 89 bd
       0.06481827 -0.012414211 0.046081025 -0.067014545
000050 3a 92 55 be d7 2f c8 be 1c 61 7e 3e 09 03 39 bd
       -0.20856562 -0.39099 0.24841732 -0.04516891
000060 12 2d 6e be b9 0a 1b 3d 44 a4 5e 3e 63 b3 df bd
       -0.2325938 0.037852023 0.2174235 -0.10922887
000070 52 03 1c be 89 de e0 3e 0a 6b 75 bd f5 6e a1 be
       -0.15235642 0.4391978 -0.059916534 -0.31529966
000080 72 a5 cd 3e 38 e8 a1 bd d6 64 34 be 1c ea 0f 3e
       0.40165287 -0.0790562 -0.17616591 0.1405415
000090 cb 1f e8 3e 2c 99 28 bd 61 9b d6 bd c8 1d 8b 3c
       0.45336756 -0.0411617 -0.10478855 0.016981974
0000a0 81 75 de 3e 01 50 77 be e9 55 14 be d5 fe f1 3e
       0.43449023 -0.24151613 -0.14485897 0.47264734
0000b0 2b 90 18 3d dd 55 1a 3d ca c8 15 3e da 09 02 be
       0.037246864 0.03767954 0.14627376 -0.1269907
0000c0 5c b0 56 3e e0 f6 36 3d 20 9a 1a be 9b 20 94 3e
       0.20965713 0.044669032 -0.15097857 0.28931126
0000d0 84 39 f1 bd 1c 7e 2d be a9 94 b1 bd 51 df be bd
       -0.11778548 -0.16942638 -0.08670933 -0.09319938
0000e0 c2 70 5f 3e f0 98 f9 3e 0b b0 34 be b2 a3 a5 bd
       0.21820357 0.48749495 -0.1764528 -0.08087863
0000f0 ac 0b 64 3d 26 3e 5d 3d bf a6 16 be 36 e2 ee bd
       0.055675194 0.054014347 -0.14712046 -0.1166424

conv4.weight f4 [128, 64, 3, 3]
000000 90 e9 36 3d 5b 52 ae 3b e8 20 c9 3d 3f 91 10 be
       0.044656336 0.005319876 0.098207295 -0.14117907
000010 82 bb 12 3a cd 93 e9 bb db 13 c8 be 59 eb 8e 3d
       0.0005597399 -0.007128215 -0.3907765 0.06978483
000020 9b be 9a be f0 9b a3 bd dc 26 57 be b2 af 8a 3d
       -0.30223545 -0.07988727 -0.21010917 0.067717925
000030 46 88 78 be 2b 34 00 be ab cc b8 3c 45 fc 83 3e
       -0.24270734 -0.125199 0.02255853 0.25778404
000040 47 d1 86 3e c3 c1 35 3e 1d 19 04 3e eb 60 1b be
       0.2633154 0.17749695 0.12900205 -0.1517369
000050 57 3c 7d 3d a2 48 0c 3e bb c9 8f be bf 11 99 be
       0.061825123 0.13699582 -0.28083596 -0.29896352
000060 3c 3f e3 3d 8f 21 9a 3d 0b a3 8c be 95 84 10 3e
       0.110960454 0.07525932 -0.27468142 0.14113076
000070 a1 c8 82 3d 56 55 ac 3d d4 c1 40 3d 7a 4c a1 bd
       0.06385923 0.08414714 0.04705985 -0.07875915
000080 f8 4b b8 be d7 05 6f be 1e 46 ae bb 15 6a 40 bc
       -0.3599546 -0.23342071 -0.005318417 -0.011744042
000090 f6 c9 3e be 5f c7 4b be 01 ac 5f be 45 39 21 be
       -0.1863173 -0.19900273 -0.21842958 -0.15744503
0000a0 e6 7b c4 be 3d 07 1c bf ff eb e9 be c6 72 c7 be
       -0.38375777 -0.60948545 -0.45687863 -0.38954753
0000b0 93 89 73 be 2f 00 a3 3c 6d de 82 3e f8 02 83 3d
       -0.23782949 0.019897548 0.25560322 0.063970506
0000c0 ac 15 13 be f1 94 28 be c6 c9 df be 16 7d 12 be
       -0.14363736 -0.16463067 -0.43708628 -0.14305529
0000d0 58 91 a2 bc 7e e8 88 3d 76 a9 ef 3b b5 4a ad bc
       -0.019844696 0.06684969 0.0073139025 -0.021153787
0000e0 af 46 2b 3d b0 97 7d 3d 08 b0 e7 bc eb f2 f7 bc
       0.041815456 0.06191224 -0.02828218 -0.0302672
0000f0 68 40 c8 bc f0 88 99 3c 68 ee 07 bd 3f 36 19 be
       -0.024444774 0.018742055 -0.033186346 -0.149621
000100 df 2d 13 3d b8 98 20 be 79 be cf bd 26 5a 9c be
       0.035932418 -0.15683258 -0.10143752 -0.30537528
000110 82 c1 67 be 8c b9 63 3d fc 9b 8f be 21 f0 6e 3e
       -0.22632411 0.055596873 -0.28048694 0.2333379
000120 99 7c 37 3e 20 a5 41 3e da d0 c2 3e 9b c9 ea 3c
       0.17918624 0.18910646 0.38049966 0.028660586
000130 43 ca 60 be 74 7d c8 bd e5 91 13 3e 08 fd 22 bd
       -0.21952157 -0.09789553 0.14411123 -0.03979209
000140 d6 c4 03 3d ee 75 e5 be a3 12 f8 bb a4 86 95 bd
       0.03217014 -0.44816536 -0.007570581 -0.07301071
000150 aa 49 bb 3d 43 c7 30 3e 5b 46 86 bc 39 ad 00 3c
       0.0914491 0.17263512 -0.01639097 0.0078537995
000160 f5 f1 7c 3e f7 3e 65 be a0 a0 01 bd dd 07 3b be
       0.24701674 -0.223873 -0.031647325 -0.18264718
000170 83 27 07 3d cd 72 27 3e c7 3c 67 be 5c 7a 92 be
       0.032996666 0.16352387 -0.22581778 -0.28608978
000180 77 09 25 bd 59 87 22 be 4c d5 c5 bc aa 74 ef bd
       -0.04029223 -0.15871944 -0.02414956 -0.11692174
000190 63 81 90 be 24 48 3d 3d 3c 65 49 3e d3 f1 09 3e
       -0.28223714 0.046211377 0.19667524 0.13471155
0001a0 e5 31 cd bd a6 8f af 3c 22 55 83 3e 95 03 ac 3d
       -0.10019282 0.021430802 0.2565089 0.08399121
0001b0 ca 2f 8b 3e c1 41 21 3d d0 c6 8b 3e 49 68 02 3d
       0.27184898 0.03936935 0.2730012 0.031837735
0001c0 f5 5a 56 be c6 13 29 3d ef 93 5b be e1 fe 83 be
       -0.20933135 0.041278623 -0.21443151 -0.25780395
0001d0 a3 86 e9 3b 5e be 4a 3e a7 05 89 be 81 b8 02 be
       0.0071266457 0.19799182 -0.26762125 -0.12765695
0001e0 f2 83 8b 3d 5b 5c 94 3d ff a5 a6 3e 15 a8 af be
       0.06812276 0.07244178 0.3254852 -0.34307924
0001f0 df 6e b8 be c1 a3 fc be 73 0d 0f be cd e9 9c be
       -0.36022088 -0.49343684 -0.13969974 -0.30647126
000200 90 5b a0 be 36 a1 d0 bd 61 aa 62 3e 6d f6 b0 bd
       -0.31319857 -0.101869985 0.22135307 -0.08640752
000210 ea ec 3c be ca 4d 77 3d 56 0e 08 3e e5 96 ad be
       -0.1844975 0.06037692 0.13286719 -0.33904186
000220 52 77 8c be 20 d0 1b be 75 3c 6b 3e 7e 84 15 be
       -0.27434784 -0.15216112 0.22972281 -0.14601323
000230 91 7a 8e be 11 fb e1 3d c2 fb 1d bf fd 33 f7 be
       -0.27827886 0.11034215 -0.61712277 -0.4828185
000240 b2 1d 4a 3e 36 06 f3 b9 a4 9a 16 3e e8 64 1c be
       0.1973789 -0.000463532 0.14707428 -0.15272868
000250 68 78 6a be b1 b8 29 bc c3 38 7d be fd d1 09 bf
       -0.22897494 -0.010358975 -0.24728684 -0.5383604
000260 d7 43 9c be 17 5a 45 be 33 8e 9c be b4 15 94 be
       -0.30520508 -0.19272648 -0.3057724 -0.28922808
000270 aa 3b 79 be 48 50 08 be cd 02 7b be bc 5c 0a bd
       -0.24339166 -0.13311875 -0.24512787 -0.033779845
000280 b1 1c 65 3e 59 25 cc bd 23 a3 a4 3e 1d f6 99 3d
       0.22374226 -0.09968061 0.32155713 0.075176455
000290 22 bc bc bb 64 1d a1 3d 64 e7 f2 3c 5d 36 c4 bd
       -0.005759732 0.07866934 0.029651351 -0.095806815
0002a0 b7 00 80 3d 24 b9 69 be 47 9c 06 be 76 5a d3 3c
       0.06250136 -0.22824532 -0.13145553 0.025799971
0002b0 eb 8a 04 3d 23 0b 0a bd 05 20 8a bc a1 16 bf bc
       0.032359045 -0.033702027 -0.016860971 -0.02332622
0002c0 69 45 55 3d ef ce 43 bd 62 b0 51 bd 2c fd 04 bd
       0.052068148 -0.04780477 -0.051193602 -0.032468006
0002d0 f3 c9 d6 3d 4b 23 89 3d ca a9 66 be f1 82 f8 3d
       0.104877375 0.06696185 -0.22525707 0.1213435
0002e0 3b b9 28 be ae 71 48 be b4 a8 7d 3e 76 86 9b 3b
       -0.1647691 -0.19574615 0.24771386 0.0047462536
0002f0 6b 0a 9b bc a8 d3 59 3d 2c 25 95 bd c6 ab 61 bc
       -0.018925866 0.053180367 -0.072824806 -0.013773864
000300 c3 e1 be be b6 7f a7 bd 7d ab 1d bd de d3 a9 bd
       -0.37281618 -0.08178656 -0.038493622 -0.082923636
000310 0c db 8d 3e a3 72 ab 3e c0 1b 54 3d d7 59 8a 3d
       0.27706182 0.33485898 0.051784277 0.06755417
000320 17 9e 31 be 28 ee 67 be 16 19 c7 be 2f 69 ff be
       -0.17345463 -0.22649443 -0.38886327 -0.49884936
000330 b8 0b 0d 3e 68 23 69 bc 5e 82 83 3c af c9 1f 3e
       0.13774002 -0.014229633 0.016053375 0.1560428
000340 64 dc 1f 3e a4 fe 1d be 77 55 40 bd 29 93 a7 3c
       0.15611416 -0.15429169 -0.046956506 0.020455914
000350 2e 0f 0e be 56 ec 96 3c 4c df 16 be 9f fa 55 bb
       -0.13872978 0.01842324 -0.14733618 -0.0032650603
000360 9b 8b 56 3d 8b a1 ef bc f0 44 2d be e9 c4 d5 bd
       0.052379232 -0.029251834 -0.16920829 -0.10437948
000370 58 ec 15 3e e0 a5 e7 bd 32 c6 44 bd 09 18 72 bd
       0.14640939 -0.11310935 -0.048040576 -0.059104953
000380 55 7a 1b 3e e6 25 8b 3e 00 95 0f 3e a3 06 99 3e
       0.15183385 0.27177352 0.14021683 0.29887876
000390 d2 f0 9d bc e5 57 ff 3d 74 46 80 3e ff 0c 83 3d
       -0.019279871 0.124679364 0.2505375 0.06398963
0003a0 29 92 20 be e6 a5 0a be a7 9f 85 be 4c ac 5b be
       -0.15680756 -0.13539848 -0.26098368 -0.21452445
0003b0 bd dc 78 3d d6 ba 72 bd d1 94 74 bd 20 1d 5c bb
       0.060757387 -0.059260212 -0.059712235 -0.0033586696
0003c0 38 44 b1 3d 58 5e 0b 3d a4 88 18 3e ae 68 d7 3c
       0.0865559 0.03402552 0.14895874 0.026295032
0003d0 f0 38 01 bd 0f dd 87 bc 38 f4 58 bc a5 dc df bb
       -0.03154844 -0.016584901 -0.01324182 -0.006831723
0003e0 f8 cb 49 bd a2 ad ce 3c b3 3b 74 3d 96 ea f9 39
       -0.049266785 0.025229279 0.059627246 0.0004766776
0003f0 ed 6b cb 3d 3b 75 cd 3d dd e5 0f bc 16 02 68 3e
       0.099326946 0.100321256 -0.008782831 0.22657046

conv4.bias f4 [128]
000000 f3 5c 30 3e 51 87 a8 3c 59 20 59 3d 7a 14 92 bd
       0.17222957 0.020572336 0.053009365 -0.07132812
000010 7d 60 fe bd 56 e4 bd bd de 6b 0a be 81 7f 6c 3e
       -0.124207474 -0.09272067 -0.1351771 0.23095514
000020 f5 47 98 be 8b 4c 79 bd 04 6f a3 be 8e b0 9f bd
       -0.297424 -0.060864013 -0.31920636 -0.07797347
000030 c6 da b7 bc ff 45 47 3e 60 6c 01 be d5 81 5e be
       -0.022443186 0.19460295 -0.12638998 -0.21729214
000040 29 c4 ec bd 33 09 f7 3d 8c 36 08 bd 81 7b 46 3d
       -0.11560852 0.120623015 -0.033255145 0.048457626
000050 65 90 96 bd e9 8e 09 be 19 36 d1 bd 60 a9 9e 3b
       -0.0735176 -0.13433422 -0.102153964 0.0048419684
000060 3f 21 a4 bd a2 47 c5 bd f9 56 c1 bd db 38 08 bd
       -0.08014154 -0.096328035 -0.09440417 -0.033257347
000070 31 da 10 be 1d 86 dc bd 20 17 f4 3d af 69 33 be
       -0.14145733 -0.107677676 0.11918473 -0.17520784
000080 4c a5 4c be df 50 c3 3d dc 37 f2 bd ec 1d 1b be
       -0.19984931 0.09536909 -0.118270606 -0.15148133
000090 ac a0 a7 be f6 ef a5 bd 1d 01 a9 3e a6 a1 48 be
       -0.3273977 -0.081024095 0.33008662 -0.19592914
0000a0 ce 84 cd 3b 0f d9 b0 bd c8 a4 a2 bd 97 b4 32 3d
       0.006271935 -0.08635151 -0.07941586 0.043629255
0000b0 9c 88 e0 bd c8 41 77 3e f7 1c ea 3d 19 77 2f 3e
       -0.10963556 0.24146187 0.11431306 0.17135276
0000c0 a3 02 e9 bd 9e a2 09 bc e5 0b b2 bd f8 87 df bb
       -0.11377456 -0.008400587 -0.08693675 -0.0068216287
0000d0 ee 5e 00 3e 28 fe 88 bd 86 9a 7c bd cd c0 96 be
       0.12536213 -0.066891015 -0.061670803 -0.2944397
0000e0 a7 37 0e be f2 03 8a bd 64 bf 26 3c 96 e0 71 3e
       -0.13888417 -0.06739034 0.010177467 0.23620829
0000f0 c5 0a b6 3c 7f 63 8f bd 56 18 ad bd 39 e0 10 bd
       0.022221932 -0.07001399 -0.08451907 -0.035370085
000100 8c 1f d7 bd 30 99 b0 bd e8 03 3f be 62 d5 88 be
       -0.10504064 -0.08622968 -0.18653834 -0.26725298
000110 03 e0 1b be 36 00 e4 3c 67 69 82 be 04 1e 01 be
       -0.15222172 0.027832132 -0.2547104 -0.12609106
000120 d4 1d 91 3c 1e 7d 7f be 98 da 5d 3e 9c 44 43 bd
       0.017714418 -0.24950072 0.21665418 -0.047672853
000130 21 5e 19 be c8 5c 87 be a1 95 0c be fd 42 b1 bd
       -0.14977314 -0.26437974 -0.13728954 -0.08655355
000140 1b 09 b5 3c 40 7b b9 3d 3b 41 9e bd 5c c2 b6 bd
       0.022099068 0.09056711 -0.077272855 -0.0892379
000150 53 66 31 bd 0c 5b 2a 3e 81 b3 82 be 12 7a 24 3e
       -0.043310475 0.16636294 -0.25527576 0.16062191
000160 e7 b0 a5 be a9 16 59 be 8c 28 d4 3d 95 9c 1f bd
       -0.32361528 -0.2120005 0.10359296 -0.038967688
000170 b7 fc 14 3e 0f dc aa bd 05 bd 1e be fd f3 5f be
       0.14549528 -0.08342754 -0.15501793 -0.21870418
000180 27 9d 27 bd 8d ee 10 3d a8 31 26 3d 4a 24 0d 3e
       -0.040921357 0.03538375 0.0405747 0.13783374
000190 8f 26 c2 bc 6d 6d b9 be b0 e3 18 be 54 46 4a be
       -0.023700027 -0.36216298 -0.14930606 -0.1975339
0001a0 a8 a0 bd 3d 76 c8 1d 3b 47 d4 82 3e c6 a2 25 3e
       0.092591584 0.0024075783 0.2555258 0.16175374
0001b0 fb 31 ec bd 93 1f 8d bd 81 f9 c3 3d b8 fb 82 3e
       -0.115329705 -0.06890788 0.095690735 0.2558267
0001c0 bb c3 9c bd 20 51 a9 bd c5 00 6e 3d f9 35 a3 be
       -0.0765452 -0.082674265 0.058106203 -0.31877115
0001d0 e0 99 0b 3d 28 e6 29 be 3d a1 36 be 66 66 4f bd
       0.034082294 -0.16591704 -0.17834945 -0.050634764
0001e0 5d dd 51 3e a8 e1 11 3e 7c f3 3b 3e 86 b0 0f be
       0.204946 0.14246237 0.183546 -0.14032182
0001f0 27 ee 9f bd 3d ef a8 3d 17 14 ca 3d bc 9a 39 3e
       -0.07809096 0.08248756 0.09867113 0.18125433

fc1.weight f4 [256, 512]
000000 a1 42 b5 bd f8 4d 13 3c 39 84 b2 3b 69 e1 3d 3d
       -0.08850599 0.008990757 0.005447891 0.046357546
000010 68 d1 ea 3c 41 60 ed 3c a6 e4 97 bd 97 0d 17 bd
       0.028664306 0.028976562 -0.07416658 -0.036878195
000020 b1 94 92 3b 1d 36 bc bd 73 5a a0 bd 4b 4c e5 bd
       0.004473292 -0.09190009 -0.07829752 -0.11196192
000030 d0 55 30 3c 97 c7 35 b9 11 49 19 bd 81 fe 03 3d
       0.010762647 -0.00017335858 -0.037423197 0.032225136
000040 71 a7 9f bd ac db ae bd 77 61 f3 bc 88 7a 0c bc
       -0.07795609 -0.08537993 -0.02970956 -0.008574136
000050 33 6d a6 3c 3d 9d 2c 3d ec a6 f5 3c 3c a9 4a bc
       0.020315742 0.04214214 0.029986821 -0.01236945
000060 df 89 69 bc bf b5 c1 bd 59 33 80 bd c7 2a 90 bc
       -0.014254062 -0.094584934 -0.06259794 -0.017598523
000070 08 cb 33 bc 94 d6 ad bd 86 a1 cf 39 7e 56 fa bb
       -0.010973699 -0.08488193 0.0003960246 -0.007639705
000080 4c 4d 93 3c a5 8d 89 3b 08 c4 e5 bc 2f 93 95 bd
       0.017981194 0.0041977935 -0.028047577 -0.07303464
000090 8a 6d 4b 3d 00 0e ea 3c 61 39 cf 3c 3a a2 60 bc
       0.04966501 0.028571129 0.025295915 -0.013710553
0000a0 93 51 1d 3c 63 91 47 bd aa 74 86 bd 0d 6a 8f 3d
       0.009601968 -0.048722636 -0.06565221 0.070026495
0000b0 a8 a3 98 bc 30 e8 11 bc 83 2e 68 bd 15 25 4c bd
       -0.018632725 -0.0089054555 -0.056684982 -0.04984005
0000c0 16 f7 2d be d5 71 93 bd 51 47 5f 3b 0c 27 63 bd
       -0.16988787 -0.07199446 0.0034069607 -0.05545716
0000d0 e2 aa e0 bd 57 db 5e bc ca fe eb bd ea ff 93 bd
       -0.10970093 -0.013602099 -0.115232065 -0.07226546
0000e0 c5 30 b8 3a 42 e7 15 3c dd ac 18 3d bd 75 89 bc
       0.001405262 0.009149374 0.03727423 -0.016779775
0000f0 f6 c6 e0 bd d8 68 e8 bd fe 3a 8f bb d1 b9 40 3d
       -0.10975449 -0.11348122 -0.004371046 0.04705221
000100 c3 25 ae bd 5c 8e 4d bd fb 14 09 be be 99 ca bd
       -0.08503296 -0.050184593 -0.1338691 -0.09892605
000110 19 4f 23 bc 35 81 63 bc 16 25 ae bd 0a 42 17 be
       -0.009967589 -0.013885786 -0.08503167 -0.14771286
000120 f7 e7 e8 ba a3 48 15 be 98 b1 2a 3d 29 fa 7e 3d
       -0.0017769326 -0.1457849 0.041673273 0.06225029
000130 34 16 82 bd f1 c6 03 bd 27 a9 ee bd 5f c4 0a 3c
       -0.06351891 -0.032172147 -0.11653357 0.00846967
000140 ca 01 39 3d 99 76 a5 39 3d 5e 60 3d 46 07 96 3d
       0.04516772 0.00031559615 0.054777373 0.07325606
000150 e7 ce 13 bd 70 6d 6c 3d a2 25 18 3c 51 7d ae bd
       -0.03608599 0.057721555 0.009286316 -0.08519996
000160 a3 77 97 bd d7 44 ab ba ce ef 39 bd f4 70 48 bd
       -0.07395866 -0.001306678 -0.04539471 -0.048935845
000170 01 85 c5 bc e3 45 d5 bd c0 d1 21 3c 0b 03 25 bd
       -0.024111273 -0.104137205 0.009876668 -0.040286105
000180 99 75 89 3c 74 41 4f bc 66 51 7d bb be 46 5d 3d
       0.016779708 -0.012649883 -0.0038653254 0.054022543
000190 3e 12 bb 3d 4a 42 d9 bb b9 87 b1 bd ae ab e0 bc
       0.09134339 -0.0066302167 -0.08668465 -0.027425613
0001a0 4d 8d c6 bc 19 d6 7b 3c df a4 40 bd 43 1d 12 bd
       -0.0242373 0.015370869 -0.047032233 -0.035672437
0001b0 ba 24 73 bd f0 0a b1 3c 7d 19 ba bc 4f f5 ac 3c
       -0.059361197 0.02161166 -0.022717232 0.021113066
0001c0 42 b2 6f bd e8 ba 02 be 3f d0 ec 3c a0 f1 2f 3d
       -0.05851961 -0.12766612 0.028907893 0.04295504
0001d0 da 87 42 bd 51 90 47 3d 20 42 ed 3a 82 28 dd ba
       -0.04749284 0.048721615 0.0018101372 -0.0016873034
0001e0 19 73 37 bd 00 40 93 bd fd 1f 73 3c 47 e1 0b bc
       -0.0447875 -0.071899414 0.01483917 -0.008537597
0001f0 13 e9 b6 3c 3b 42 71 bd 9f 4e f2 3c 83 31 c8 bd
       0.022327935 -0.058901053 0.029578505 -0.097750686
000200 c6 4f 14 bd 6f 9b 35 bd 41 96 17 bd d7 df 2c bd
       -0.03620889 -0.044337686 -0.037008528 -0.042205658
000210 de ef 90 bd 41 4f 7c bd 62 e6 8b 3d 07 e7 41 bd
       -0.07077001 -0.06159902 0.068310514 -0.047339465
000220 75 c1 74 bd 5d 89 ed bd bf e1 13 3d ef de 91 3c
       -0.059754808 -0.115984656 0.03610396 0.017806498
000230 fc 4c 6a bc 29 15 a3 bd c0 7d b4 bc 3f ae fb bd
       -0.014300581 -0.0796302 -0.022032619 -0.12289094
000240 5f 63 35 bd 52 47 c1 bd a9 7e eb bc 88 d1 67 bd
       -0.04428422 -0.094374314 -0.02874692 -0.05659631
000250 ac 61 8d 3d 3f b9 59 bd 80 6c b4 3a 50 30 01 bd
       0.06903395 -0.05315518 0.0013765246 -0.031540215
000260 ce 36 ea bd 7b 45 71 bd cf b9 17 bb da 1e 14 3c
       -0.114362344 -0.058904152 -0.0023151522 0.009040559
000270 ef cd 9e 3c 6f 24 3b bd 6d c8 98 3d 5c d3 8e bc
       0.019385306 -0.045689043 0.07460103 -0.017434768
000280 a4 db fb 3a 1d 91 51 3d 1f 17 b2 bd a3 1b 10 bc
       0.0019215238 0.05116378 -0.08695816 -0.008795652
000290 46 f1 55 3c 23 3e 82 bc 7d 7b 18 bd 31 18 d8 3d
       0.013058012 -0.01589877 -0.037227143 0.10551489
0002a0 30 8b 11 3d eb 5a 35 bd 6f e4 28 bd 0b 9b a7 bd
       0.03553313 -0.04427616 -0.041233476 -0.08183869
0002b0 3f 6a 5d 3c 5e 76 4d bb 59 28 90 3c fa 8b ec bc
       0.013514101 -0.003135107 0.017597364 -0.02887534
0002c0 81 3f 95 bd a0 69 27 3d 2d b8 17 3d bb 7c 63 bd
       -0.07287503 0.040872216 0.037040878 -0.055538874
0002d0 51 80 dd bb c9 a6 37 bd 19 db da 3c a1 92 02 3d
       -0.0067596813 -0.044836793 0.026715802 0.031878117
0002e0 66 6c df 3c db 43 77 bd ed 12 46 bd 6b 25 d5 bc
       0.027273368 -0.060367446 -0.048357893 -0.026018819
0002f0 b0 c2 36 bd 16 56 c8 bc c7 80 9e bd 4f db a0 3c
       -0.044619262 -0.024455111 -0.07739406 0.019635824
000300 48 c9 f2 bd b9 2b 46 bd 6d e7 8f bc 9c e5 6c 3c
       -0.118547976 -0.04838154 -0.017566407 0.01445904
000310 ab 78 da 3c 22 bd 85 bc 84 aa 97 bd 34 09 c8 3c
       0.026668867 -0.016325537 -0.0740557 0.02441845
000320 15 ed 23 bc 59 a1 0c 3c 66 5f 72 3c 81 4a bc 3d
       -0.010005255 0.00858339 0.014793253 0.09193898
000330 7e fd 25 bc be 59 56 bd 79 dd 78 bc 57 fb c0 bd
       -0.010131238 -0.05233168 -0.015189522 -0.09422939
000340 74 94 e8 bd 46 c7 a6 3c de c1 dc bd 42 08 6f bd
       -0.1135644 0.020358693 -0.10779165 -0.058357485
000350 19 30 19 be 85 d6 b8 bc ed 3e 16 be 46 41 56 bd
       -0.14959754 -0.022563228 -0.14672442 -0.052308343
000360 76 02 fc 3c 4a 63 bf bb dc 20 56 bb 77 0f e2 3b
       0.030762892 -0.0058406936 -0.0032673394 0.006898816
000370 57 47 4a bb c1 af 89 bd e2 ed e1 3b 40 9e 84 ba
       -0.0030865276 -0.067229755 0.006894813 -0.0010117963
000380 09 c3 59 3b 45 36 23 bc 79 04 0c bd 16 20 3e 3d
       0.0033227822 -0.009961669 -0.034183953 0.04641732
000390 92 93 be bc ab 0d be 3c 11 5c f6 bc 2d 72 b6 bd
       -0.023263726 0.023199877 -0.030073198 -0.08908496
0003a0 94 ff e6 bd 72 94 0b 3c 5d e7 b5 3c 86 ef 0d 3c
       -0.112792164 0.008519279 0.02220505 0.008663064
0003b0 10 ff 21 be e9 f2 6f bd 40 6c 61 bc e7 d5 9d bd
       -0.15819955 -0.058581267 -0.013758719 -0.07706814
0003c0 d7 45 8f bc 07 14 1f 3b 23 69 03 bd 39 8e e4 ba
       -0.017489357 0.0024273412 -0.032082688 -0.0017437405
0003d0 ac 06 26 bd 25 84 5f bd ec 77 97 bd 43 11 f3 3c
       -0.040533707 -0.054569382 -0.0739592 0.029671317
0003e0 56 0c 95 bd 70 89 1f 3c e8 9e 51 3c 61 e9 1f 3d
       -0.072777435 0.0097373575 0.012794234 0.039040927
0003f0 c4 eb cf bc 83 34 ef 3c d3 87 78 bc df 1e 88 3d
       -0.025380976 0.029199844 -0.015169102 0.06646513

fc1.bias f4 [256]
000000 08 f9 f0 bd 38 0c 9a 3d cf d9 d9 3d 1c 30 b7 bd
       -0.11766249 0.07521862 0.10637247 -0.08944723
000010 38 f0 7e 3e 4e f4 de bc ec 50 60 be 97 83 1d 3e
       0.24896324 -0.027216103 -0.21905869 0.15382229
000020 ff f8 0b 3e 21 6d ae be 75 c3 d1 3d 3d c9 63 3e
       0.13669203 -0.34067634 0.102423586 0.22244735
000030 18 63 b1 bd 73 4c 18 3d ff a1 97 3d d6 62 ea bd
       -0.08661479 0.037182283 0.07403945 -0.11444633
000040 d1 5f a3 3b c7 b5 77 3e ac ef 98 bd 18 bc 7a 3e
       0.0049857874 0.24190436 -0.07467589 0.24485815
000050 e9 43 92 3e 4b 27 e7 3a 60 97 b4 bd 10 bd 6e 3e
       0.28567436 0.0017635612 -0.08817935 0.23314309
000060 34 e4 52 3c f4 82 f4 bc e2 23 a7 3d 84 26 52 3d
       0.012871791 -0.0298476 0.08161141 0.051306263
000070 10 d2 fb 3d 34 3b 7e 3d c0 26 ca 3d 14 41 96 be
       0.122959256 0.06206818 0.09870672 -0.29346526
000080 c1 f7 a4 3e bc d9 f8 3e a0 e3 d0 bb fd 3c 1b 3e
       0.3222027 0.48603618 -0.0063747913 0.15159984
000090 3f bc 39 3e e9 ea 9a bd 2e ab 55 bb 99 fa 8d 3e
       0.18138216 -0.07564337 -0.0032603252 0.27730253
0000a0 2f 52 21 3d bb e6 7c bd d6 73 bc bd 73 a4 54 3e
       0.039385017 -0.06174348 -0.092017815 0.20765857
0000b0 f1 a9 82 be ff 02 3e ba 9c 58 27 3e 15 b6 db be
       -0.2552028 -0.0007248371 0.16342396 -0.42912355
0000c0 43 94 fd 3b 2d 07 46 be 2b 38 23 3e ba 36 d4 3d
       0.0077386214 -0.19338675 0.15939395 0.10362001
0000d0 03 8b 31 bd 90 d8 17 3e c2 fd e5 bc 51 1f 64 3d
       -0.043345463 0.14828706 -0.028075103 0.05569393
0000e0 80 28 40 3e a5 c8 47 3e e5 e3 1a 3e 27 dd 6c be
       0.1876545 0.19510134 0.15125997 -0.23131238
0000f0 5d 1e b3 3d bb c8 94 3e cc 7c f3 3d 3c 14 29 be
       0.08746026 0.29059395 0.118890375 -0.16511625
000100 61 15 1c 3d c8 ca 60 3e ef e9 92 be 24 0a 96 3d
       0.038106326 0.21952355 -0.28694102 0.07326153
000110 c4 48 9a 3e 6b b5 8e bc c4 7f c0 3d 1c e0 11 bd
       0.3013364 -0.017420491 0.09399369 -0.035614118
000120 76 31 e7 3d 03 c7 8b bd 44 6b 0a 3e 8c 48 c2 3a
       0.11288731 -0.06825068 0.13517481 0.0014822646
000130 d4 1e 81 3e 31 cb 2f 3d 80 31 04 be 74 3f 0f 3f
       0.25218832 0.042918388 -0.12909508 0.55956197
000140 76 56 c2 3d fc 01 b7 be fc 7b c7 3d 12 24 8c 3e
       0.09489147 -0.357437 0.09740445 0.2737127
000150 95 d6 e7 3e 44 57 4b bd 7d 5f 15 be 48 90 e8 bd
       0.452809 -0.04964377 -0.14587207 -0.113556445
000160 a2 07 9f 3a d1 12 3e be 3b c5 73 3e c6 c4 69 be
       0.0012133012 -0.18561865 0.23805706 -0.2282897
000170 01 19 13 3e 60 2c 99 3d 2d 11 9f 3d c7 09 92 bc
       0.14365007 0.07479167 0.07766948 -0.017826928
000180 a7 21 4b be 77 57 6d be 05 92 31 be 2d d9 f9 3d
       -0.19837056 -0.23177896 -0.17340858 0.12199626
000190 bf bb 9a 3e a2 1f f3 3e ba 11 55 be 07 f7 8f bd
       0.30221364 0.4748507 -0.20807543 -0.070295386
0001a0 5a e5 9f 3e 5f 12 4b 3e cd 35 8a bd 9a 66 ac 3d
       0.3122967 0.19831227 -0.06748543 0.08418007
0001b0 9d 63 be bc ba 44 24 3e 8e cf 0b bd 2b 4f b0 3d
       -0.023240859 0.16041842 -0.034133486 0.0860885
0001c0 7b 35 a3 be 13 bf 35 be 97 c0 3b 3e 60 91 d8 bd
       -0.3187674 -0.1774867 0.18335186 -0.10574603
0001d0 aa aa 9f be 79 05 80 3d d4 d4 6b 3e 08 95 01 be
       -0.31184894 0.06251044 0.23030406 -0.12654507
0001e0 9a bb c4 3e f3 a5 8a 3d c3 38 48 3e bf 67 3b 3d
       0.3842438 0.067699336 0.19552903 0.045753237
0001f0 e6 03 68 3e f7 1d 73 3e 48 bf e8 bd 52 88 d6 bd
       0.22657737 0.237419 -0.11364609 -0.1047522
000200 cc 0c ba 3d 7e 4d 68 3e 72 60 29 3e bd de 1b bc
       0.09084472 0.22685811 0.16540697 -0.009513554
000210 6b 1f 44 be 66 86 cb 3d 36 22 4d 3d cc 93 48 3e
       -0.1915261 0.09937744 0.050081454 0.1958763
000220 24 a4 63 3d 8a d9 38 3e 11 7e e1 bd 7b 96 e2 bd
       0.05557646 0.18051735 -0.110103734 -0.11063858
000230 d5 ca 08 be e9 0c 8c be de d8 db 3d e1 c8 96 3e
       -0.13358624 -0.273536 0.107347235 0.29450133
000240 2b 85 05 3e 0c 0f d7 3d be be 1c bd 67 1b 49 3e
       0.13039081 0.10500917 -0.038267843 0.1963936
000250 aa 29 a6 bd 95 8c b3 be 51 8c 31 bc 21 68 70 be
       -0.081134155 -0.35068193 -0.010836677 -0.23477222
000260 13 a4 0e 3e 82 82 60 3e 00 bf d9 3d 5a c2 ac bd
       0.13929777 0.21924785 0.106321335 -0.08435507
000270 69 1c ff 3d 64 6d 85 be 98 0f f9 3c d8 93 c9 3d
       0.12456591 -0.2606002 0.030402943 0.09842652
000280 3f d1 4d 3e d2 61 ab bd d5 5f 8a bd 6a 51 7a bd
       0.20099352 -0.08368267 -0.0675656 -0.0611128
000290 44 d2 16 bc ff 0d 9b 3e 8a a1 03 be f3 e1 83 3e
       -0.009205405 0.30284116 -0.12854591 0.25758323
0002a0 d7 9c 18 bd ae 50 06 3d b5 95 e8 3e 05 93 84 be
       -0.03725895 0.032791786 0.45426717 -0.25893417
0002b0 e3 43 2c be 67 6d d2 bd 3f 71 71 3e 89 03 46 3e
       -0.16822772 -0.10274773 0.23578356 0.19337286
0002c0 7c 06 8d bd de ab 59 bd be d2 bd bd d0 9e 5b bc
       -0.068860024 -0.05314242 -0.092687115 -0.013404563
0002d0 7b 7f 8e 3d 6d 2b e4 3c ba ed 76 3e 3c 31 c2 be
       0.06957909 0.027852738 0.24114123 -0.37928188
0002e0 ac 57 02 3e 21 13 1d 3c ee 25 9d be 97 40 84 3e
       0.12728757 0.00958708 -0.30693 0.25830528
0002f0 57 27 cd 3d 46 e0 e1 bd 2b 16 dc 3c 5f 34 34 3d
       0.10017269 -0.11029105 0.02686604 0.043995257
000300 36 8c d2 3d d3 a3 27 be 6a 22 25 3e 72 fc 27 3e
       0.10280649 -0.16371088 0.16126409 0.16404894
000310 cc 04 84 3d 55 19 5a ba d3 84 8b 3c d9 b0 c4 3d
       0.064462274 -0.0008319815 0.017031109 0.096040435
000320 92 2f 87 be bc aa a7 bd 98 e6 9b be fa 7c 6b 3e
       -0.2640348 -0.08186862 -0.30449367 0.22996894
000330 4b 13 86 3e 89 a5 fd 3d 83 97 9e be f7 9f c4 3e
       0.26186594 0.12385089 -0.3097497 0.38403293
000340 a3 5d 44 3e f0 69 4b be c3 31 ea bd c5 e6 8d 3e
       0.19176345 -0.1986463 -0.114352725 0.27715126
000350 04 33 66 3e a1 69 4f bd 3b 5a cb 3d 39 f5 cf 3d
       0.22480398 -0.050637845 0.099293195 0.101541944
000360 96 20 d6 3d 9c 92 68 be 31 42 c6 bd bc fb a0 3e
       0.10455434 -0.22712177 -0.09680594 0.31442058
000370 3c cb 89 3e 56 a5 96 bd ca 2b 8c 3e af 66 82 3c
       0.26912868 -0.07355754 0.27377158 0.015918104
000380 0e 4f 5c 3e 05 4b 8f 3c 56 5d 2b 3c 0a fd a8 3e
       0.21514532 0.017491827 0.010459265 0.33005553
000390 4a 3a ec bd a5 33 36 3e 8d 8d 26 3d 8f f9 96 3e
       -0.11534555 0.17793138 0.040662337 0.29487273
0003a0 a7 6f 92 be de 27 41 3e ea 78 15 be 6c 9e ab 3c
       -0.2860081 0.18862864 -0.14596906 0.020949565
0003b0 8e ed 8e 3e 82 2b 09 3e 31 3c a5 be 83 18 36 3e
       0.27915615 0.13395503 -0.32272485 0.17782788
0003c0 f1 11 87 be 50 26 b5 bc 90 e5 3d 3e 0a 03 ec bc
       -0.26380876 -0.022112995 0.18544602 -0.028810043
0003d0 ce 84 0e 3d 91 bc 16 bd 32 52 00 3e b6 ed 6f bd
       0.03479462 -0.036800925 0.12531355 -0.05857631
0003e0 75 35 af 3d a8 ad 78 3e 12 0f a0 bc 43 82 8d be
       0.08555118 0.24284995 -0.019538436 -0.27638444
0003f0 82 68 92 3d 09 30 1f 3e 87 84 55 3a 30 35 a3 be
       0.071488395 0.15545668 0.0008145053 -0.31876516
